…
[PhysicalDevice(name='/physical_device:CPU:0', device_type='CPU'), PhysicalDevice(name='/physical_device:XLA_CPU:0', device_type='XLA_CPU'), PhysicalDevice(name='/physical_device:XLA_GPU:0', device_type='XLA_GPU'), PhysicalDevice(name='/physical_device:GPU:0', device_type='GPU')]
Model: "model_1"
_________________________________________________________________
Layer (type)                 Output Shape              Param #   
=================================================================
input_1 (InputLayer)         [(None, 400, 22)]         0         
_________________________________________________________________
in_dist (TimeDistributed)    (None, 400, 64)           1472      
_________________________________________________________________
enc_bd_0 (Bidirectional)     (None, 400, 128)          66048     
_________________________________________________________________
enc_bnorm_0 (BatchNormalizat (None, 400, 128)          512       
_________________________________________________________________
enc_bd_1 (Bidirectional)     (None, 400, 128)          98816     
_________________________________________________________________
enc_bnorm_1 (BatchNormalizat (None, 400, 128)          512       
_________________________________________________________________
enc_bd_2 (Bidirectional)     (None, 128)               98816     
_________________________________________________________________
enc_bnorm_2 (BatchNormalizat (None, 128)               512       
_________________________________________________________________
latent_projection (Dense)    (None, 32)                4128      
_________________________________________________________________
repeat_vector (RepeatVector) (None, 400, 32)           0         
_________________________________________________________________
dec_bd_0 (Bidirectional)     (None, 400, 64)           16640     
_________________________________________________________________
dec_bnorm_0 (BatchNormalizat (None, 400, 64)           256       
_________________________________________________________________
dropout (Dropout)            (None, 400, 64)           0         
_________________________________________________________________
dec_bd_1 (Bidirectional)     (None, 400, 128)          66048     
_________________________________________________________________
dec_bnorm_1 (BatchNormalizat (None, 400, 128)          512       
_________________________________________________________________
dropout_1 (Dropout)          (None, 400, 128)          0         
_________________________________________________________________
dec_bd_2 (Bidirectional)     (None, 400, 256)          263168    
_________________________________________________________________
dec_bnorm_2 (BatchNormalizat (None, 400, 256)          1024      
_________________________________________________________________
dropout_2 (Dropout)          (None, 400, 256)          0         
_________________________________________________________________
out_dist (TimeDistributed)   (None, 400, 8)            2056      
=================================================================
Total params: 620,520
Trainable params: 618,856
Non-trainable params: 1,664
_________________________________________________________________
Compiling encoder-decoder
Making generators
Fitting model
Epoch 1/1000
100/100 - 1086s - loss: 1.4784 - val_loss: 0.6546
Epoch 2/1000
100/100 - 61s - loss: 0.6439 - val_loss: 0.5482
Epoch 3/1000
…
