…
[PhysicalDevice(name='/physical_device:CPU:0', device_type='CPU'), PhysicalDevice(name='/physical_device:XLA_CPU:0', device_type='XLA_CPU'), PhysicalDevice(name='/physical_device:XLA_GPU:0', device_type='XLA_GPU'), PhysicalDevice(name='/physical_device:GPU:0', device_type='GPU')]
Model: "model"
_________________________________________________________________
Layer (type)                 Output Shape              Param #   
=================================================================
input_1 (InputLayer)         [(None, 400, 22)]         0         
_________________________________________________________________
in_dist (TimeDistributed)    (None, 400, 256)          5888      
_________________________________________________________________
enc_bd_0 (Bidirectional)     (None, 400, 512)          1050624   
_________________________________________________________________
enc_bnorm_0 (BatchNormalizat (None, 400, 512)          2048      
_________________________________________________________________
dropout (Dropout)            (None, 400, 512)          0         
_________________________________________________________________
enc_bd_1 (Bidirectional)     (None, 400, 256)          656384    
_________________________________________________________________
enc_bnorm_1 (BatchNormalizat (None, 400, 256)          1024      
_________________________________________________________________
dropout_1 (Dropout)          (None, 400, 256)          0         
_________________________________________________________________
enc_bd_2 (Bidirectional)     (None, 128)               164352    
_________________________________________________________________
enc_bnorm_2 (BatchNormalizat (None, 128)               512       
_________________________________________________________________
dropout_2 (Dropout)          (None, 128)               0         
_________________________________________________________________
latent_projection (Dense)    (None, 64)                8256      
_________________________________________________________________
repeat_vector (RepeatVector) (None, 400, 64)           0         
_________________________________________________________________
dec_bd_0 (Bidirectional)     (None, 400, 128)          66048     
_________________________________________________________________
dec_bnorm_0 (BatchNormalizat (None, 400, 128)          512       
_________________________________________________________________
dec_bd_1 (Bidirectional)     (None, 400, 256)          263168    
_________________________________________________________________
dec_bnorm_1 (BatchNormalizat (None, 400, 256)          1024      
_________________________________________________________________
dec_bd_2 (Bidirectional)     (None, 400, 512)          1050624   
_________________________________________________________________
dec_bnorm_2 (BatchNormalizat (None, 400, 512)          2048      
_________________________________________________________________
out_dist (TimeDistributed)   (None, 400, 22)           11286     
=================================================================
Total params: 3,283,798
Trainable params: 3,280,214
Non-trainable params: 3,584
_________________________________________________________________
Compiling model
Making generators
Fitting model
Epoch 1/1000
100/100 - 73s - loss: 0.7290 - mse: 0.7290 - val_loss: 0.6829 - val_mse: 0.6829
Epoch 2/1000
100/100 - 36s - loss: 0.4035 - mse: 0.4035 - val_loss: 0.5422 - val_mse: 0.5422
…
