…
[PhysicalDevice(name='/physical_device:CPU:0', device_type='CPU'), PhysicalDevice(name='/physical_device:XLA_CPU:0', device_type='XLA_CPU'), PhysicalDevice(name='/physical_device:XLA_GPU:0', device_type='XLA_GPU'), PhysicalDevice(name='/physical_device:GPU:0', device_type='GPU')]
Model: "model"
_________________________________________________________________
Layer (type)                 Output Shape              Param #   
=================================================================
input_1 (InputLayer)         [(None, 400, 22)]         0         
_________________________________________________________________
in_dist (TimeDistributed)    (None, 400, 128)          2944      
_________________________________________________________________
enc_bd_0 (Bidirectional)     (None, 400, 256)          263168    
_________________________________________________________________
enc_bnorm_0 (BatchNormalizat (None, 400, 256)          1024      
_________________________________________________________________
enc_bd_1 (Bidirectional)     (None, 400, 256)          394240    
_________________________________________________________________
enc_bnorm_1 (BatchNormalizat (None, 400, 256)          1024      
_________________________________________________________________
enc_bd_2 (Bidirectional)     (None, 256)               394240    
_________________________________________________________________
enc_bnorm_2 (BatchNormalizat (None, 256)               1024      
_________________________________________________________________
latent_projection (Dense)    (None, 64)                16448     
_________________________________________________________________
repeat_vector (RepeatVector) (None, 400, 64)           0         
_________________________________________________________________
dec_bd_0 (Bidirectional)     (None, 400, 256)          197632    
_________________________________________________________________
dec_bnorm_0 (BatchNormalizat (None, 400, 256)          1024      
_________________________________________________________________
dec_bd_1 (Bidirectional)     (None, 400, 256)          394240    
_________________________________________________________________
dec_bnorm_1 (BatchNormalizat (None, 400, 256)          1024      
_________________________________________________________________
dec_bd_2 (Bidirectional)     (None, 400, 256)          394240    
_________________________________________________________________
dec_bnorm_2 (BatchNormalizat (None, 400, 256)          1024      
_________________________________________________________________
out_dist (TimeDistributed)   (None, 400, 22)           5654      
=================================================================
Total params: 2,068,950
Trainable params: 2,065,878
Non-trainable params: 3,072
_________________________________________________________________
Compiling model
Making generators
Fitting model
Epoch 1/600
500/500 - 997s - loss: 0.3684 - mse: 0.3684 - val_loss: 0.2524 - val_mse: 0.2524
Epoch 2/600
500/500 - 689s - loss: 0.3138 - mse: 0.3138 - val_loss: 0.3716 - val_mse: 0.3716
…
