…
[PhysicalDevice(name='/physical_device:CPU:0', device_type='CPU'), PhysicalDevice(name='/physical_device:XLA_CPU:0', device_type='XLA_CPU'), PhysicalDevice(name='/physical_device:XLA_GPU:0', device_type='XLA_GPU'), PhysicalDevice(name='/physical_device:GPU:0', device_type='GPU')]
Model: "model_1"
_________________________________________________________________
Layer (type)                 Output Shape              Param #
=================================================================
input_1 (InputLayer)         [(None, 400, 22)]         0
_________________________________________________________________
in_dist (TimeDistributed)    (None, 400, 64)           1472
_________________________________________________________________
enc_bd_0 (Bidirectional)     (None, 400, 128)          66048
_________________________________________________________________
enc_bnorm_0 (BatchNormalizat (None, 400, 128)          512
_________________________________________________________________
enc_bd_1 (Bidirectional)     (None, 400, 128)          98816
_________________________________________________________________
enc_bnorm_1 (BatchNormalizat (None, 400, 128)          512
_________________________________________________________________
enc_bd_2 (Bidirectional)     (None, 128)               98816
_________________________________________________________________
enc_bnorm_2 (BatchNormalizat (None, 128)               512
_________________________________________________________________
latent_projection (Dense)    (None, 32)                4128
_________________________________________________________________
repeat_vector (RepeatVector) (None, 400, 32)           0
_________________________________________________________________
dec_bd_0 (Bidirectional)     (None, 400, 128)          49664
_________________________________________________________________
dec_bnorm_0 (BatchNormalizat (None, 400, 128)          512
_________________________________________________________________
dec_bd_1 (Bidirectional)     (None, 400, 128)          98816
_________________________________________________________________
dec_bnorm_1 (BatchNormalizat (None, 400, 128)          512
_________________________________________________________________
dec_bd_2 (Bidirectional)     (None, 400, 128)          98816
_________________________________________________________________
dec_bnorm_2 (BatchNormalizat (None, 400, 128)          512
_________________________________________________________________
out_dist (TimeDistributed)   (None, 400, 2)            258
=================================================================
Total params: 519,906
Trainable params: 518,370
Non-trainable params: 1,536
_________________________________________________________________
Compiling encoder-decoder
Making generators
Fitting model
Epoch 1/1000
100/100 - 1102s - loss: 1.9505 - val_loss: 0.7099
Epoch 2/1000
100/100 - 44s - loss: 0.6676 - val_loss: 0.5461
Epoch 3/1000
…
