…
[PhysicalDevice(name='/physical_device:CPU:0', device_type='CPU'), PhysicalDevice(name='/physical_device:XLA_CPU:0', device_type='XLA_CPU'), PhysicalDevice(name='/physical_device:XLA_GPU:0', device_type='XLA_GPU'), PhysicalDevice(name='/physical_device:GPU:0', device_type='GPU')]
Model: "model"
_________________________________________________________________
Layer (type)                 Output Shape              Param #   
=================================================================
input_1 (InputLayer)         [(None, 400, 22)]         0         
_________________________________________________________________
in_dist (TimeDistributed)    (None, 400, 64)           1472      
_________________________________________________________________
enc_bd_0 (Bidirectional)     (None, 400, 128)          66048     
_________________________________________________________________
enc_bnorm_0 (BatchNormalizat (None, 400, 128)          512       
_________________________________________________________________
dropout (Dropout)            (None, 400, 128)          0         
_________________________________________________________________
enc_bd_1 (Bidirectional)     (None, 400, 128)          98816     
_________________________________________________________________
enc_bnorm_1 (BatchNormalizat (None, 400, 128)          512       
_________________________________________________________________
dropout_1 (Dropout)          (None, 400, 128)          0         
_________________________________________________________________
enc_bd_2 (Bidirectional)     (None, 400, 128)          98816     
_________________________________________________________________
enc_bnorm_2 (BatchNormalizat (None, 400, 128)          512       
_________________________________________________________________
dropout_2 (Dropout)          (None, 400, 128)          0         
_________________________________________________________________
enc_bd_3 (Bidirectional)     (None, 400, 128)          98816     
_________________________________________________________________
enc_bnorm_3 (BatchNormalizat (None, 400, 128)          512       
_________________________________________________________________
dropout_3 (Dropout)          (None, 400, 128)          0         
_________________________________________________________________
enc_bd_4 (Bidirectional)     (None, 128)               98816     
_________________________________________________________________
enc_bnorm_4 (BatchNormalizat (None, 128)               512       
_________________________________________________________________
dropout_4 (Dropout)          (None, 128)               0         
_________________________________________________________________
latent_projection (Dense)    (None, 256)               33024     
_________________________________________________________________
repeat_vector (RepeatVector) (None, 400, 256)          0         
_________________________________________________________________
dec_bd_0 (Bidirectional)     (None, 400, 128)          164352    
_________________________________________________________________
dec_bnorm_0 (BatchNormalizat (None, 400, 128)          512       
_________________________________________________________________
dec_bd_1 (Bidirectional)     (None, 400, 128)          98816     
_________________________________________________________________
dec_bnorm_1 (BatchNormalizat (None, 400, 128)          512       
_________________________________________________________________
dec_bd_2 (Bidirectional)     (None, 400, 128)          98816     
_________________________________________________________________
dec_bnorm_2 (BatchNormalizat (None, 400, 128)          512       
_________________________________________________________________
dec_bd_3 (Bidirectional)     (None, 400, 128)          98816     
_________________________________________________________________
dec_bnorm_3 (BatchNormalizat (None, 400, 128)          512       
_________________________________________________________________
dec_bd_4 (Bidirectional)     (None, 400, 128)          98816     
_________________________________________________________________
dec_bnorm_4 (BatchNormalizat (None, 400, 128)          512       
_________________________________________________________________
out_dist (TimeDistributed)   (None, 400, 22)           2838      
=================================================================
Total params: 1,063,382
Trainable params: 1,060,822
Non-trainable params: 2,560
_________________________________________________________________
Compiling model
Making generators
Fitting model
Epoch 1/1000
500/500 - 1678s - loss: 0.6216 - mse: 0.6216 - val_loss: 0.3989 - val_mse: 0.3989
Epoch 2/1000
500/500 - 487s - loss: 0.3976 - mse: 0.3976 - val_loss: 0.3199 - val_mse: 0.3199
…
